_________________________________________________________________
Layer (type)                 Output Shape              Param #   
=================================================================
dense_1 (Dense)              (None, 5)                 60        
_________________________________________________________________
dense_2 (Dense)              (None, 5)                 30        
_________________________________________________________________
dense_3 (Dense)              (None, 5)                 30        
_________________________________________________________________
dense_4 (Dense)              (None, 5)                 30        
_________________________________________________________________
dense_5 (Dense)              (None, 2)                 12        
=================================================================
Total params: 162
Trainable params: 162
Non-trainable params: 0
_________________________________________________________________
train_X BEFORE fitting:
[[ … train_y BEFORE fitting:
[[0. 1.]
 [0. 1.]
 [0. 1.]
 [1. 0.]
 [0. 1.]]
test_X BEFORE fitting:
[[ … test_y BEFORE fitting:
[[1. 0.]
 [0. 1.]
 [0. 1.]
 [0. 1.]
 [1. 0.]]
…
 [1. 0.]
 ...
 [1. 0.]
 [0. 1.]
 [0. 1.]]
/opt/anaconda3/lib/python3.7/site-packages/keras/activations.py:235: UserWarning: Do not pass a layer instance (such as LeakyReLU) as the activation argument of another layer. Instead, advanced activation layers should be used just like any other layer in a model.
  identifier=identifier.__class__.__name__))
Model: "sequential_2"
_________________________________________________________________
Layer (type)                 Output Shape              Param #   
=================================================================
dense_6 (Dense)              (None, 10)                120       
_________________________________________________________________
dense_7 (Dense)              (None, 10)                110       
_________________________________________________________________
dense_8 (Dense)              (None, 10)                110       
_________________________________________________________________
dense_9 (Dense)              (None, 10)                110       
_________________________________________________________________
dense_10 (Dense)             (None, 2)                 22        
=================================================================
Total params: 472
Trainable params: 472
Non-trainable params: 0
_________________________________________________________________
train_X BEFORE fitting:
[[ … train_y BEFORE fitting:
[[0. 1.]
 [0. 1.]
 [0. 1.]
 [1. 0.]
 [0. 1.]]
test_X BEFORE fitting:
[[ … test_y BEFORE fitting:
[[1. 0.]
 [0. 1.]
 [0. 1.]
 [0. 1.]
 [1. 0.]]
…
 [1. 0.]
 ...
 [1. 0.]
 [0. 1.]
 [0. 1.]]
/opt/anaconda3/lib/python3.7/site-packages/keras/activations.py:235: UserWarning: Do not pass a layer instance (such as LeakyReLU) as the activation argument of another layer. Instead, advanced activation layers should be used just like any other layer in a model.
  identifier=identifier.__class__.__name__))
Model: "sequential_3"
_________________________________________________________________
Layer (type)                 Output Shape              Param #   
=================================================================
dense_11 (Dense)             (None, 20)                240       
_________________________________________________________________
dense_12 (Dense)             (None, 20)                420       
_________________________________________________________________
dense_13 (Dense)             (None, 20)                420       
_________________________________________________________________
dense_14 (Dense)             (None, 20)                420       
_________________________________________________________________
dense_15 (Dense)             (None, 2)                 42        
=================================================================
Total params: 1,542
Trainable params: 1,542
Non-trainable params: 0
_________________________________________________________________
train_X BEFORE fitting:
[[ … train_y BEFORE fitting:
[[0. 1.]
 [0. 1.]
 [0. 1.]
 [1. 0.]
 [0. 1.]]
test_X BEFORE fitting:
[[ … test_y BEFORE fitting:
[[1. 0.]
 [0. 1.]
 [0. 1.]
 [0. 1.]
 [1. 0.]]
…
 [1. 0.]
 ...
 [1. 0.]
 [0. 1.]
 [0. 1.]]
/opt/anaconda3/lib/python3.7/site-packages/keras/activations.py:235: UserWarning: Do not pass a layer instance (such as LeakyReLU) as the activation argument of another layer. Instead, advanced activation layers should be used just like any other layer in a model.
  identifier=identifier.__class__.__name__))
Model: "sequential_4"
_________________________________________________________________
Layer (type)                 Output Shape              Param #   
=================================================================
dense_16 (Dense)             (None, 20)                240       
_________________________________________________________________
dense_17 (Dense)             (None, 20)                420       
_________________________________________________________________
dense_18 (Dense)             (None, 20)                420       
_________________________________________________________________
dense_19 (Dense)             (None, 20)                420       
_________________________________________________________________
dense_20 (Dense)             (None, 20)                420       
_________________________________________________________________
dense_21 (Dense)             (None, 20)                420       
_________________________________________________________________
dense_22 (Dense)             (None, 20)                420       
_________________________________________________________________
dense_23 (Dense)             (None, 20)                420       
_________________________________________________________________
dense_24 (Dense)             (None, 20)                420       
_________________________________________________________________
dense_25 (Dense)             (None, 20)                420       
_________________________________________________________________
dense_26 (Dense)             (None, 20)                420       
_________________________________________________________________
dense_27 (Dense)             (None, 20)                420       
_________________________________________________________________
dense_28 (Dense)             (None, 20)                420       
_________________________________________________________________
dense_29 (Dense)             (None, 20)                420       
_________________________________________________________________
dense_30 (Dense)             (None, 20)                420       
_________________________________________________________________
dense_31 (Dense)             (None, 20)                420       
_________________________________________________________________
dense_32 (Dense)             (None, 20)                420       
_________________________________________________________________
dense_33 (Dense)             (None, 20)                420       
_________________________________________________________________
dense_34 (Dense)             (None, 20)                420       
_________________________________________________________________
dense_35 (Dense)             (None, 20)                420       
_________________________________________________________________
dense_36 (Dense)             (None, 2)                 42        
=================================================================
Total params: 8,262
Trainable params: 8,262
Non-trainable params: 0
_________________________________________________________________
train_X BEFORE fitting:
[[ … train_y BEFORE fitting:
[[0. 1.]
 [0. 1.]
 [0. 1.]
 [1. 0.]
 [0. 1.]]
test_X BEFORE fitting:
[[ … test_y BEFORE fitting:
[[1. 0.]
 [0. 1.]
 [0. 1.]
 [0. 1.]
 [1. 0.]]
…
